10000
_________________________________________________________________
Layer (type)                 Output Shape              Param #   
=================================================================
embedding_1 (Embedding)      (None, 45, 650)           6500000   
_________________________________________________________________
dropout_1 (Dropout)          (None, 45, 650)           0         
_________________________________________________________________
cu_dnnlstm_1 (CuDNNLSTM)     (None, 45, 650)           3385200   
_________________________________________________________________
dropout_2 (Dropout)          (None, 45, 650)           0         
_________________________________________________________________
cu_dnnlstm_2 (CuDNNLSTM)     (None, 45, 650)           3385200   
_________________________________________________________________
dropout_3 (Dropout)          (None, 45, 650)           0         
_________________________________________________________________
time_distributed_1 (TimeDist (None, 45, 10000)         6510000   
_________________________________________________________________
activation_1 (Activation)    (None, 45, 10000)         0         
=================================================================
Total params: 19,780,400
Trainable params: 19,780,400
Non-trainable params: 0
_________________________________________________________________
None
Epoch 1/40

   1/1032 [..............................] - ETA: 1:33:13 - loss: 9.2106 - categorical_accuracy: 0.0000e+00
   2/1032 [..............................] - ETA: 47:57 - loss: 9.2085 - categorical_accuracy: 0.0244      
…
