10000
_________________________________________________________________
Layer (type)                 Output Shape              Param #   
=================================================================
input_1 (InputLayer)         (None, 45)                0         
_________________________________________________________________
embedding_1 (Embedding)      (None, 45, 650)           6500000   
_________________________________________________________________
dropout_1 (Dropout)          (None, 45, 650)           0         
_________________________________________________________________
cu_dnnlstm_1 (CuDNNLSTM)     (None, 45, 650)           3385200   
_________________________________________________________________
dropout_2 (Dropout)          (None, 45, 650)           0         
_________________________________________________________________
cu_dnnlstm_2 (CuDNNLSTM)     (None, 45, 650)           3385200   
_________________________________________________________________
dropout_3 (Dropout)          (None, 45, 650)           0         
_________________________________________________________________
time_distributed_1 (TimeDist (None, 45, 10000)         6510000   
=================================================================
Total params: 19,780,400
Trainable params: 19,780,400
Non-trainable params: 0
_________________________________________________________________
None
Epoch 1/50

   1/1032 [..............................] - ETA: 4:23:23 - loss: 9.2104 - categorical_accuracy: 0.0000e+00
   2/1032 [..............................] - ETA: 2:13:02 - loss: 9.2083 - categorical_accuracy: 0.0333    
…
