10000
__________________________________________________________________________________________________
Layer (type)                    Output Shape         Param #     Connected to                     
==================================================================================================
input_1 (InputLayer)            (None, 35)           0                                            
__________________________________________________________________________________________________
embedding_1 (Embedding)         (None, 35, 650)      6500000     input_1[0][0]                    
__________________________________________________________________________________________________
dropout_1 (Dropout)             (None, 35, 650)      0           embedding_1[0][0]                
__________________________________________________________________________________________________
cu_dnnlstm_1 (CuDNNLSTM)        (None, 35, 650)      3385200     dropout_1[0][0]                  
__________________________________________________________________________________________________
dropout_2 (Dropout)             (None, 35, 650)      0           cu_dnnlstm_1[0][0]               
__________________________________________________________________________________________________
cu_dnnlstm_2 (CuDNNLSTM)        (None, 35, 650)      3385200     dropout_2[0][0]                  
__________________________________________________________________________________________________
dropout_3 (Dropout)             (None, 35, 650)      0           cu_dnnlstm_2[0][0]               
__________________________________________________________________________________________________
time_distributed_1 (TimeDistrib (None, 35, 6500)     4231500     dropout_3[0][0]                  
__________________________________________________________________________________________________
reshape_1 (Reshape)             (None, 350, 650)     0           time_distributed_1[0][0]         
__________________________________________________________________________________________________
time_distributed_3 (TimeDistrib (None, 350, 10000)   6510000     reshape_1[0][0]                  
__________________________________________________________________________________________________
time_distributed_2 (TimeDistrib (None, 35, 10)       6500        dropout_3[0][0]                  
__________________________________________________________________________________________________
reshape_3 (Reshape)             (None, 35, 10, 10000 0           time_distributed_3[0][0]         
__________________________________________________________________________________________________
reshape_2 (Reshape)             (None, 35, 10, 1)    0           time_distributed_2[0][0]         
__________________________________________________________________________________________________
multiply_1 (Multiply)           (None, 35, 10, 10000 0           reshape_3[0][0]                  
                                                                 reshape_2[0][0]                  
__________________________________________________________________________________________________
lambda_1 (Lambda)               (None, 35, 10000)    0           multiply_1[0][0]                 
==================================================================================================
Total params: 24,018,400
Trainable params: 24,018,400
Non-trainable params: 0
__________________________________________________________________________________________________
None
Epoch 1/50

   1/1327 [..............................] - ETA: 2:06:43 - loss: 9.2104 - categorical_accuracy: 0.0014
…
