10000
__________________________________________________________________________________________________
Layer (type)                    Output Shape         Param #     Connected to                     
==================================================================================================
input_1 (InputLayer)            (None, 75)           0                                            
__________________________________________________________________________________________________
embedding_1 (Embedding)         (None, 75, 800)      8000000     input_1[0][0]                    
__________________________________________________________________________________________________
dropout_1 (Dropout)             (None, 75, 800)      0           embedding_1[0][0]                
__________________________________________________________________________________________________
cu_dnnlstm_1 (CuDNNLSTM)        (None, 75, 800)      5126400     dropout_1[0][0]                  
__________________________________________________________________________________________________
dropout_2 (Dropout)             (None, 75, 800)      0           cu_dnnlstm_1[0][0]               
__________________________________________________________________________________________________
cu_dnnlstm_2 (CuDNNLSTM)        (None, 75, 800)      5126400     dropout_2[0][0]                  
__________________________________________________________________________________________________
dropout_3 (Dropout)             (None, 75, 800)      0           cu_dnnlstm_2[0][0]               
__________________________________________________________________________________________________
time_distributed_1 (TimeDistrib (None, 75, 5600)     4485600     dropout_3[0][0]                  
__________________________________________________________________________________________________
reshape_1 (Reshape)             (None, 525, 800)     0           time_distributed_1[0][0]         
__________________________________________________________________________________________________
time_distributed_3 (TimeDistrib (None, 525, 10000)   8010000     reshape_1[0][0]                  
__________________________________________________________________________________________________
time_distributed_2 (TimeDistrib (None, 75, 7)        5600        dropout_3[0][0]                  
__________________________________________________________________________________________________
reshape_3 (Reshape)             (None, 75, 7, 10000) 0           time_distributed_3[0][0]         
__________________________________________________________________________________________________
reshape_2 (Reshape)             (None, 75, 7, 1)     0           time_distributed_2[0][0]         
__________________________________________________________________________________________________
multiply_1 (Multiply)           (None, 75, 7, 10000) 0           reshape_3[0][0]                  
                                                                 reshape_2[0][0]                  
__________________________________________________________________________________________________
lambda_1 (Lambda)               (None, 75, 10000)    0           multiply_1[0][0]                 
==================================================================================================
Total params: 30,754,000
Trainable params: 30,754,000
Non-trainable params: 0
__________________________________________________________________________________________________
None
Epoch 1/50

   1/1239 [..............................] - ETA: 6:18:09 - loss: 9.2103 - categorical_accuracy: 0.0000e+00
…
