10000
__________________________________________________________________________________________________
Layer (type)                    Output Shape         Param #     Connected to                     
==================================================================================================
input_1 (InputLayer)            (None, 55)           0                                            
__________________________________________________________________________________________________
embedding_1 (Embedding)         (None, 55, 700)      7000000     input_1[0][0]                    
__________________________________________________________________________________________________
dropout_1 (Dropout)             (None, 55, 700)      0           embedding_1[0][0]                
__________________________________________________________________________________________________
cu_dnnlstm_1 (CuDNNLSTM)        (None, 55, 700)      3925600     dropout_1[0][0]                  
__________________________________________________________________________________________________
dropout_2 (Dropout)             (None, 55, 700)      0           cu_dnnlstm_1[0][0]               
__________________________________________________________________________________________________
cu_dnnlstm_2 (CuDNNLSTM)        (None, 55, 700)      3925600     dropout_2[0][0]                  
__________________________________________________________________________________________________
dropout_3 (Dropout)             (None, 55, 700)      0           cu_dnnlstm_2[0][0]               
__________________________________________________________________________________________________
time_distributed_1 (TimeDistrib (None, 55, 9800)     6869800     dropout_3[0][0]                  
__________________________________________________________________________________________________
reshape_1 (Reshape)             (None, 770, 700)     0           time_distributed_1[0][0]         
__________________________________________________________________________________________________
time_distributed_3 (TimeDistrib (None, 770, 10000)   7010000     reshape_1[0][0]                  
__________________________________________________________________________________________________
time_distributed_2 (TimeDistrib (None, 55, 14)       9800        dropout_3[0][0]                  
__________________________________________________________________________________________________
reshape_3 (Reshape)             (None, 55, 14, 10000 0           time_distributed_3[0][0]         
__________________________________________________________________________________________________
reshape_2 (Reshape)             (None, 55, 14, 1)    0           time_distributed_2[0][0]         
__________________________________________________________________________________________________
multiply_1 (Multiply)           (None, 55, 14, 10000 0           reshape_3[0][0]                  
                                                                 reshape_2[0][0]                  
__________________________________________________________________________________________________
lambda_1 (Lambda)               (None, 55, 10000)    0           multiply_1[0][0]                 
==================================================================================================
Total params: 28,740,800
Trainable params: 28,740,800
Non-trainable params: 0
__________________________________________________________________________________________________
None
Epoch 1/50

   1/1207 [..............................] - ETA: 6:43:46 - loss: 9.2103 - categorical_accuracy: 0.0000e+00
…
