10000
__________________________________________________________________________________________________
Layer (type)                    Output Shape         Param #     Connected to                     
==================================================================================================
input_1 (InputLayer)            (None, 70)           0                                            
__________________________________________________________________________________________________
embedding_1 (Embedding)         (None, 70, 1000)     10000000    input_1[0][0]                    
__________________________________________________________________________________________________
dropout_1 (Dropout)             (None, 70, 1000)     0           embedding_1[0][0]                
__________________________________________________________________________________________________
cu_dnnlstm_1 (CuDNNLSTM)        (None, 70, 1000)     8008000     dropout_1[0][0]                  
__________________________________________________________________________________________________
dropout_2 (Dropout)             (None, 70, 1000)     0           cu_dnnlstm_1[0][0]               
__________________________________________________________________________________________________
cu_dnnlstm_2 (CuDNNLSTM)        (None, 70, 1000)     8008000     dropout_2[0][0]                  
__________________________________________________________________________________________________
dropout_3 (Dropout)             (None, 70, 1000)     0           cu_dnnlstm_2[0][0]               
__________________________________________________________________________________________________
time_distributed_1 (TimeDistrib (None, 70, 5000)     5005000     dropout_3[0][0]                  
__________________________________________________________________________________________________
reshape_1 (Reshape)             (None, 350, 1000)    0           time_distributed_1[0][0]         
__________________________________________________________________________________________________
time_distributed_3 (TimeDistrib (None, 350, 10000)   10010000    reshape_1[0][0]                  
__________________________________________________________________________________________________
time_distributed_2 (TimeDistrib (None, 70, 5)        5000        dropout_3[0][0]                  
__________________________________________________________________________________________________
reshape_3 (Reshape)             (None, 70, 5, 10000) 0           time_distributed_3[0][0]         
__________________________________________________________________________________________________
reshape_2 (Reshape)             (None, 70, 5, 1)     0           time_distributed_2[0][0]         
__________________________________________________________________________________________________
multiply_1 (Multiply)           (None, 70, 5, 10000) 0           reshape_3[0][0]                  
                                                                 reshape_2[0][0]                  
__________________________________________________________________________________________________
lambda_1 (Lambda)               (None, 70, 10000)    0           multiply_1[0][0]                 
==================================================================================================
Total params: 41,036,000
Trainable params: 41,036,000
Non-trainable params: 0
__________________________________________________________________________________________________
None
Epoch 1/50
