10000
_________________________________________________________________
Layer (type)                 Output Shape              Param #   
=================================================================
input_1 (InputLayer)         (None, 40)                0         
_________________________________________________________________
embedding_1 (Embedding)      (None, 40, 650)           6500000   
_________________________________________________________________
dropout_1 (Dropout)          (None, 40, 650)           0         
_________________________________________________________________
cu_dnnlstm_1 (CuDNNLSTM)     (None, 40, 650)           3385200   
_________________________________________________________________
dropout_2 (Dropout)          (None, 40, 650)           0         
_________________________________________________________________
cu_dnnlstm_2 (CuDNNLSTM)     (None, 40, 650)           3385200   
_________________________________________________________________
dropout_3 (Dropout)          (None, 40, 650)           0         
_________________________________________________________________
time_distributed_1 (TimeDist (None, 40, 10000)         6510000   
=================================================================
Total params: 19,780,400
Trainable params: 19,780,400
Non-trainable params: 0
_________________________________________________________________
None
Epoch 1/50

   1/1161 [..............................] - ETA: 1:24:00 - loss: 9.2102 - categorical_accuracy: 0.0000e+00
   2/1161 [..............................] - ETA: 43:22 - loss: 9.2085 - categorical_accuracy: 0.0219      
…
