10000
_________________________________________________________________
Layer (type)                 Output Shape              Param #   
=================================================================
embedding_1 (Embedding)      (None, 31, 1800)          18000000  
_________________________________________________________________
dropout_1 (Dropout)          (None, 31, 1800)          0         
_________________________________________________________________
cu_dnnlstm_1 (CuDNNLSTM)     (None, 31, 1800)          25934400  
_________________________________________________________________
dropout_2 (Dropout)          (None, 31, 1800)          0         
_________________________________________________________________
cu_dnnlstm_2 (CuDNNLSTM)     (None, 31, 1800)          25934400  
_________________________________________________________________
dropout_3 (Dropout)          (None, 31, 1800)          0         
_________________________________________________________________
time_distributed_1 (TimeDist (None, 31, 10000)         18010000  
_________________________________________________________________
activation_1 (Activation)    (None, 31, 10000)         0         
=================================================================
Total params: 87,878,800
Trainable params: 87,878,800
Non-trainable params: 0
_________________________________________________________________
None
Epoch 1/40

   1/1763 [..............................] - ETA: 2:51:11 - loss: 9.2102 - categorical_accuracy: 0.0000e+00
   2/1763 [..............................] - ETA: 1:30:27 - loss: 9.1999 - categorical_accuracy: 0.0408    
…
