10000
_________________________________________________________________
Layer (type)                 Output Shape              Param #   
=================================================================
input_1 (InputLayer)         (None, 35)                0         
_________________________________________________________________
embedding_1 (Embedding)      (None, 35, 1100)          11000000  
_________________________________________________________________
dropout_1 (Dropout)          (None, 35, 1100)          0         
_________________________________________________________________
cu_dnnlstm_1 (CuDNNLSTM)     (None, 35, 1100)          9688800   
_________________________________________________________________
dropout_2 (Dropout)          (None, 35, 1100)          0         
_________________________________________________________________
cu_dnnlstm_2 (CuDNNLSTM)     (None, 35, 1100)          9688800   
_________________________________________________________________
dropout_3 (Dropout)          (None, 35, 1100)          0         
_________________________________________________________________
time_distributed_1 (TimeDist (None, 35, 10000)         11010000  
=================================================================
Total params: 41,387,600
Trainable params: 41,387,600
Non-trainable params: 0
_________________________________________________________________
None
Epoch 1/50

   1/5311 [..............................] - ETA: 6:46:14 - loss: 9.2100 - categorical_accuracy: 0.0000e+00
   2/5311 [..............................] - ETA: 3:26:38 - loss: 9.0679 - categorical_accuracy: 0.0771    
…
