10000
_________________________________________________________________
Layer (type)                 Output Shape              Param #   
=================================================================
embedding_1 (Embedding)      (None, 55, 650)           6500000   
_________________________________________________________________
dropout_1 (Dropout)          (None, 55, 650)           0         
_________________________________________________________________
cu_dnnlstm_1 (CuDNNLSTM)     (None, 55, 650)           3385200   
_________________________________________________________________
dropout_2 (Dropout)          (None, 55, 650)           0         
_________________________________________________________________
cu_dnnlstm_2 (CuDNNLSTM)     (None, 55, 650)           3385200   
_________________________________________________________________
dropout_3 (Dropout)          (None, 55, 650)           0         
_________________________________________________________________
time_distributed_1 (TimeDist (None, 55, 10000)         6510000   
_________________________________________________________________
activation_1 (Activation)    (None, 55, 10000)         0         
=================================================================
Total params: 19,780,400
Trainable params: 19,780,400
Non-trainable params: 0
_________________________________________________________________
None
Epoch 1/40

  1/845 [..............................] - ETA: 1:18:59 - loss: 9.2102 - categorical_accuracy: 0.0000e+00
  2/845 [..............................] - ETA: 40:47 - loss: 9.2082 - categorical_accuracy: 0.0273      
…
