10000
_________________________________________________________________
Layer (type)                 Output Shape              Param #   
=================================================================
embedding_1 (Embedding)      (None, 20, 200)           2000000   
_________________________________________________________________
cu_dnnlstm_1 (CuDNNLSTM)     (None, 20, 200)           321600    
_________________________________________________________________
cu_dnnlstm_2 (CuDNNLSTM)     (None, 20, 200)           321600    
_________________________________________________________________
time_distributed_1 (TimeDist (None, 20, 10000)         2010000   
_________________________________________________________________
activation_1 (Activation)    (None, 20, 10000)         0         
=================================================================
Total params: 4,653,200
Trainable params: 4,653,200
Non-trainable params: 0
_________________________________________________________________
None
Epoch 1/15

   1/2323 [..............................] - ETA: 5:52:47 - loss: 9.2103 - categorical_accuracy: 0.0000e+00
   2/2323 [..............................] - ETA: 2:57:33 - loss: 9.2093 - categorical_accuracy: 0.0275    
…
