10000
_________________________________________________________________
Layer (type)                 Output Shape              Param #   
=================================================================
embedding_1 (Embedding)      (None, 50, 1000)          10000000  
_________________________________________________________________
dropout_1 (Dropout)          (None, 50, 1000)          0         
_________________________________________________________________
cu_dnnlstm_1 (CuDNNLSTM)     (None, 50, 1000)          8008000   
_________________________________________________________________
dropout_2 (Dropout)          (None, 50, 1000)          0         
_________________________________________________________________
cu_dnnlstm_2 (CuDNNLSTM)     (None, 50, 1000)          8008000   
_________________________________________________________________
dropout_3 (Dropout)          (None, 50, 1000)          0         
_________________________________________________________________
time_distributed_1 (TimeDist (None, 50, 10000)         10010000  
_________________________________________________________________
activation_1 (Activation)    (None, 50, 10000)         0         
=================================================================
Total params: 36,026,000
Trainable params: 36,026,000
Non-trainable params: 0
_________________________________________________________________
None
Epoch 1/40

   1/1239 [..............................] - ETA: 4:28:52 - loss: 9.2104 - categorical_accuracy: 0.0000e+00
   2/1239 [..............................] - ETA: 2:16:34 - loss: 9.2068 - categorical_accuracy: 0.0373    
…
