10000
_________________________________________________________________
Layer (type)                 Output Shape              Param #   
=================================================================
embedding_1 (Embedding)      (None, 35, 650)           6500000   
_________________________________________________________________
dropout_1 (Dropout)          (None, 35, 650)           0         
_________________________________________________________________
cu_dnnlstm_1 (CuDNNLSTM)     (None, 35, 650)           3385200   
_________________________________________________________________
dropout_2 (Dropout)          (None, 35, 650)           0         
_________________________________________________________________
cu_dnnlstm_2 (CuDNNLSTM)     (None, 35, 650)           3385200   
_________________________________________________________________
dropout_3 (Dropout)          (None, 35, 650)           0         
_________________________________________________________________
time_distributed_1 (TimeDist (None, 35, 10000)         6510000   
_________________________________________________________________
activation_1 (Activation)    (None, 35, 10000)         0         
=================================================================
Total params: 19,780,400
Trainable params: 19,780,400
Non-trainable params: 0
_________________________________________________________________
None
Epoch 1/40

  1/265 [..............................] - ETA: 28:19 - loss: 9.2104 - categorical_accuracy: 5.7143e-04
  2/265 [..............................] - ETA: 15:05 - loss: 9.2124 - categorical_accuracy: 0.0234    
…
