10000
_________________________________________________________________
Layer (type)                 Output Shape              Param #   
=================================================================
embedding_1 (Embedding)      (None, 28, 1800)          18000000  
_________________________________________________________________
dropout_1 (Dropout)          (None, 28, 1800)          0         
_________________________________________________________________
cu_dnnlstm_1 (CuDNNLSTM)     (None, 28, 1800)          25934400  
_________________________________________________________________
dropout_2 (Dropout)          (None, 28, 1800)          0         
_________________________________________________________________
cu_dnnlstm_2 (CuDNNLSTM)     (None, 28, 1800)          25934400  
_________________________________________________________________
dropout_3 (Dropout)          (None, 28, 1800)          0         
_________________________________________________________________
time_distributed_1 (TimeDist (None, 28, 10000)         18010000  
_________________________________________________________________
activation_1 (Activation)    (None, 28, 10000)         0         
=================================================================
Total params: 87,878,800
Trainable params: 87,878,800
Non-trainable params: 0
_________________________________________________________________
None
Epoch 1/40

   1/1580 [..............................] - ETA: 2:33:34 - loss: 9.2106 - categorical_accuracy: 0.0000e+00
   2/1580 [..............................] - ETA: 1:20:54 - loss: 9.2021 - categorical_accuracy: 0.0434    
…
